DaniKun/data.pth (torch, 5610 bytes, 6 tensors)

l1.weight f4 [8, 57]
0.1873755 -0.27621308 0.40651965 -0.0022940452 -0.15154131 0.6120719 0.15217024 -0.13762172
-0.078392364 -0.1187425 0.097544685 0.1846283 -0.09882457 -0.23077981 -0.24828224 0.69505465
0.42170867 -0.36691996 -0.1515893 -0.36691484 -0.36691317 -0.33447745 0.34386587 0.71934384
-0.03908791 -0.3202782 0.4795267 -0.17922817 -0.10961735 -0.0060266447 -0.28825355 0.100312784
0.6908646 -0.36910495 0.4878099 0.309252 -0.30767396 0.57339364 0.74743885 0.4125542
0.39188808 -0.067077994 0.6937128 -0.337335 -0.4051219 -0.007993273 0.12925026 0.07599072
0.11349447 -0.1764782 0.016916977 0.7129309 0.65886205 0.3948353 0.4043954 -0.12791401
0.69337386 -0.18735488 0.4023873 0.08930316 0.39619198 -0.1908958 0.6601938 -0.005474896
0.32928798 0.5085176 -0.19533917 0.3346836 0.28114757 0.25852364 0.34119707 -0.2705878
0.64097005 0.043288708 -0.49963415 -0.3387678 -0.48759964 -0.5031656 -0.20930104 0.13079797
-0.117516726 -0.20125255 0.5785975 0.5430528 0.61814386 0.3353238 -0.11540066 0.5145538
0.5316682 -0.7103065 0.5401724 0.21284476 0.32469714 0.5361238 0.20305565 -0.6763273
0.38937083 0.52755505 0.20520788 -0.07892574 0.48625028 0.45530358 0.4380021 0.27779445
-0.5028306 0.020357294 -0.061964847 0.06542947 0.20325601 -0.12683079 0.3536678 0.322009
0.007786584 -0.7256657 0.23716587 -0.08801073 0.36600727 -0.41291443 0.41655993 -0.26426268
0.0078576235 -0.4476903 -0.36352158 0.4735752 0.3445012 -0.074172005 0.38663432 0.01738213
0.38462248 -0.2443884 0.36892477 0.47488648 0.4032419 0.5944797 0.61093223 0.56047237
0.22195345 0.7030706 0.46058404 -0.100264266 -0.10001781 -0.020350456 0.35763785 0.13019715
-0.123387344 0.23014992 0.6461979 -0.5076176 0.35136765 0.3276772 -0.5279952 -0.56499887
0.54429644 0.2830984 -0.13175675 0.32191497 0.594971 -0.14632456 -0.62469727 0.49396023
0.30010185 0.017945081 -0.26063523 0.35768855 0.2057855 -0.6210834 0.5193409 0.3311091
0.22971421 0.3374261 0.41002515 -0.22481473 0.448978 -0.054091606 0.16448367 0.42719278
-0.38864413 0.7379662 0.15620509 0.14561397 0.4989793 0.3562673 0.24648036 0.44414225
0.45504993 0.48980948 -0.40630084 0.040704984 0.7532991 -0.03548583 0.82998 0.5922044
0.5613452 0.7529782 -0.04356824 0.33801395 0.3102837 -0.101469025 0.47432315 0.5023811
0.14071086 0.5417649 0.6719782 -0.31404048 0.3475614 0.33815533 0.30211398 0.48165277
0.7349702 -0.45119086 0.40111455 -0.26307002 0.36495164 -0.08506887 0.3937037 0.4729313
0.43127894 0.2867024 -0.48884603 -0.14596377 0.31958747 0.5846488 0.67707795 -0.24453229
0.47708768 0.36146438 0.036403332 -0.538368 0.6888988 -0.25816432 0.16600946 0.53629184
-0.20563142 0.65242904 0.058766395 0.4357915 0.48405942 -0.24504496 -0.19534557 0.18131338
-0.06060798 -0.43319935 -0.32156116 0.6381782 -0.1434473 -0.51848364 0.063297644 -0.47473902
-0.4171652 -0.2805515 0.14081064 0.23495193 -0.20694496 -0.25207913 0.45693833 -0.25323895
00000000: 5ddf 3f3e cd6b 8dbe 5823 d03e b157 16bb
00000010: a52d 1bbe beb0 1c3f 84d2 1b3e b5ec 0cbe
00000020: 2d8c a0bd 452f f3bd 82c5 c73d 330f 3d3e
00000030: 8964 cabd 8b51 6cbe b33d 7ebe 1aef 313f
00000040: 33ea d73e efdc bbbe 3a3a 1bbe 43dc bbbe
00000050: 0bdc bbbe a140 abbe 300f b03e eb26 383f
00000060: a51a 20bd 81fb a3be 8684 f53e 9787 37be
00000070: 107f e0bd 297b c5bb f895 93be ca70 cd3d
00000080: 81dc 303f 53fb bcbe 38c2 f93e 4756 9e3e
00000090: 7187 9dbe edc9 123f 2758 3f3f 4e3a d33e
000000a0: 8ea5 c83e 3060 89bd 2997 313f 2cb7 acbe
000000b0: 236c cfbe 38f6 02bc 2e5a 043e 06a1 9b3d
000000c0: ca6f e83d b4b6 34be 7995 8a3c a482 363f
000000d0: 2fab 283f da27 ca3e ea0c cf3e e4fb 02be
000000e0: f380 313f f5d9 3fbe b505 ce3e 93e4 b63d
000000f0: add9 ca3e 307a 43be 7602 293f c266 b3bb
00000100: 6f98 a83e 362e 023f fe06 48be a65b ab3e
00000110: 93f2 8f3e 365d 843e 62b1 ae3e 7c8a 8abe
00000120: 9d16 243f 804f 313d 0cd0 ffbe f972 adbe
00000130: a9a6 f9be 76cf 00bf 0353 56be e7ef 053e
00000140: 9cac f0bd 2615 4ebe f71e 143f 8205 0b3f
00000150: ad3e 1e3f 90af ab3e 2e57 ecbd ccb9 033f
00000160: 681b 083f a6d6 35bf bd48 0a3f faf3 593e
00000170: b43e a63e 693f 093f d2ed 4f3e c923 2dbf
00000180: 9d5b c73e d90d 073f 0422 523e d2a3 a1bd
00000190: ccf5 f83e 8d1d e93e d041 e03e 133b 8e3e
000001a0: 82b9 00bf 57c4 a63c dace 7dbd e3ff 853d
000001b0: 5822 503e eedf 01be f213 b53e 5dde a43e
000001c0: 9a26 ff3b 3ac5 39bf 9cdb 723e f83e b4bd
000001d0: 4e65 bb3e 8569 d3be 5847 d53e 704d 87be
000001e0: 43bd 003c aa37 e5be 801f babe 7378 f23e
000001f0: 7662 b03e 7ee7 97bd eff4 c53e f864 8e3c
00000200: 3ded c43e f440 7abe b5e3 bc3e 5224 f33e
00000210: b975 ce3e d22f 183f 0e66 1c3f 1e7b 0f3f
00000220: c447 633e 6ffc 333f acd1 eb3e 5a57 cdbd
00000230: 23d6 ccbd 00b6 a6bc 4f1c b73e 6752 053e
00000240: 81b2 fcbd 6cac 6b3e 3a6d 253f 3af3 01bf
00000250: 76e6 b33e 4ec5 a73e b22a 07bf c4a3 10bf
00000260: 0357 0b3f 46f2 903e 3eeb 06be 0ad2 a43e
00000270: 0550 183f 1bd6 15be 29ec 1fbf 5be8 fc3e
00000280: f3a6 993e 9001 933c fb71 85be f422 b73e
00000290: 6fb9 523e 52ff 1ebf 86f3 043f 2287 a93e
000002a0: 343a 6b3e 1dc3 ac3e d1ee d13e d535 66be
000002b0: 72e0 e53e 298f 5dbd 686e 283e 03b9 da3e
000002c0: 5dfc c6be 5aeb 3c3f 3af4 1f3e d41b 153e
000002d0: 377a ff3e ab68 b63e 5965 7c3e 9d66 e33e
000002e0: 4efc e83e 4fc8 fa3e aa06 d0be 45ba 263d
000002f0: 36d8 403f 9759 11bd 9279 543f b59a 173f
00000300: 52b4 0f3f 2ec3 403f 9c74 32bd 2a10 ad3e
00000310: 81dd 9e3e fece cfbd 7cda f23e 0c9c 003f
00000320: 8216 103e 1bb1 0a3f c306 2c3f eac9 a0be
00000330: 91f3 b13e b222 ad3e afae 9a3e 319b f63e
00000340: 0227 3c3f 7d02 e7be e35e cd3e 1db1 86be
00000350: f1da ba3e 9638 aebd 8893 c93e 0d24 f23e
00000360: 98d0 dc3e a8ca 923e 074a fabe 8777 15be
00000370: f8a0 a33e 8bab 153f fb54 2d3f ac66 7abe
00000380: d644 f43e dc11 b93e a91b 153d 7cd2 09bf
00000390: ac5b 303f 1d2e 84be 62fe 293e 6c4a 093f
000003a0: 0b91 52be 9705 273f 08b5 703d 1020 df3e
000003b0: a3d6 f73e 11ed 7abe ab08 48be 37aa 393e
000003c0: 1340 78bd 4ecc ddbe aaa3 a4be a65f 233f
000003d0: d9e3 12be 58bb 04bf 32a2 813d fe10 f3be
000003e0: ad96 d5be 72a4 8fbe aa30 103e 3d97 703e
000003f0: 61e9 53be 8410 81be d2f3 e93e 89a8 81be

l1.bias f4 [8]
0.36690205 0.50333697 0.9565787 0.5974903 0.6310119 0.6270295 0.35565233 0.606784
00000000: 96da bb3e b1da 003f 57e2 743f 20f5 183f
00000010: ff89 213f 0185 203f 1018 b63e 3256 1b3f

l2.weight f4 [8, 8]
0.6631879 0.1495094 0.69363266 -0.83720183 1.2638696 0.58895445 -0.034826428 -0.6329992
-0.25930792 0.6028542 -0.53552634 0.6392369 0.9824335 -0.046130165 0.7639383 1.5911132
0.22489676 -0.12380069 -0.31128827 -0.06858168 0.119733684 -0.29605782 0.052069098 -0.09067118
0.33304387 -0.8792566 1.1728433 -0.36309487 0.48375988 1.0886799 -0.6555738 0.41201356
-0.97532433 0.21231295 1.1504644 1.0261512 -1.1777886 0.014881712 0.16772161 0.16168818
0.43597078 -0.63873774 0.98793805 0.99492216 -0.023505246 0.31220362 -0.94392097 -0.55984026
-0.34429288 -0.3202532 -0.26956728 -0.18561354 -0.20351622 -0.18961863 0.22603437 -0.2664152
0.8455207 1.2418664 -0.15239851 0.6833677 0.036502946 1.0349633 1.1441522 -0.7951187
00000000: afc6 293f fe18 193e e991 313f dc52 56bf
00000010: 7bc6 a13f b8c5 163f 28a6 0ebd 3c0c 22bf
00000020: 02c4 84be a754 1a3f 4118 09bf 08a5 233f
00000030: c380 7b3f fcf2 3cbd 7691 433f 99a9 cb3f
00000040: 564b 663e 378b fdbd 2d61 9fbe 8d74 8cbd
00000050: ef36 f53d e494 97be 6846 553d d0b1 b9bd
00000060: ba84 aa3e f616 61bf bb1f 963f 92e7 b9be
00000070: 60af f73e dd59 8b3f afd3 27bf 71f3 d23e
00000080: dbae 79bf 9168 593e 6b42 933f ec58 833f
00000090: c7c1 96bf 6dd2 733c 37bf 2b3e 9691 253e
000000a0: 9037 df3e 5184 23bf 82e9 7c3f 38b3 7e3f
000000b0: 138e c0bc 27d9 9f3e cea4 71bf b151 0fbf
000000c0: 2847 b0be 3af8 a3be b904 8abe 7a11 3ebe
000000d0: 8e66 50be 632b 42be 8e75 673e 9367 88be
000000e0: 0b74 583f 7af5 9e3f 5b0e 1cbe 30f1 2e3f
000000f0: 1d84 153d ad79 843f 9473 923f e68c 4bbf

l2.bias f4 [8]
0.76052177 0.5315108 -0.2570369 0.76132494 0.8731783 0.09837714 -0.27227584 -0.10946436
00000000: 8eb1 423f 1711 083f 579a 83be 31e6 423f
00000010: 9d88 5f3f f479 c93d bd67 8bbe da2e e0bd

l3.weight f4 [7, 8]
-0.49676988 -1.2730821 -0.26395133 -0.1923087 0.07215913 0.49232286 -0.20320432 0.54481834
0.6285123 -0.28634462 0.17556788 -0.31004408 -0.98454434 -1.5250514 0.32335994 0.6045389
-0.189686 -0.40307438 -0.0814326 0.1061332 0.98146975 0.558995 -0.18050307 -1.6107876
-1.2585955 0.16757987 0.22601812 -1.1429935 0.34374598 -1.1813504 -0.2871883 0.45933026
-0.6657441 0.73288596 0.13275985 -1.3112578 -1.2654209 0.16466627 -0.022620976 0.21167576
0.5664947 -1.5868881 -0.18248837 0.12801598 -0.8894303 0.4264103 0.16990694 -0.056707457
0.31064025 0.49504498 -0.0025335874 0.53693223 -1.0602208 -0.53072274 0.33464804 -1.6981523
00000000: 9f58 febe 5bf4 a2bf a124 87be 92ec 44be
00000010: 2ac8 933d be11 fc3e cb14 50be 3779 0b3f
00000020: 2fe6 203f c39b 92be 11c8 333e 19be 9ebe
00000030: 190b 7cbf e234 c3bf 6f8f a53e 10c3 1a3f
00000040: 0c3d 42be c45f cebe 23c6 a6bd 5d5c d93d
00000050: 9a41 7b3f 4c1a 0f3f ccd5 38be 4a2e cebf
00000060: a819 a1bf 0f9a 2b3e 4b71 673e 9c4d 92bf
00000070: 79ff af3e 7d36 97bf 580a 93be 562d eb3e
00000080: 356e 2abf 6a9e 3b3f 33f2 073e 4cd7 a7bf
00000090: 50f9 a1bf 469e 283e a04f b9bc 88c1 583e
000000a0: cc05 113f 261f cbbf 3bde 3abe 9f16 033e
000000b0: b4b1 63bf 7352 da3e 16fc 2d3e 1446 68bd
000000c0: 3d0c 9f3e 8976 fd3e 8b0a 26bb 6474 093f
000000d0: 51b5 87bf 72dd 07bf fd56 ab3e 0e5d d9bf

l3.bias f4 [7]
-0.056988392 0.11248734 -0.033306077 -0.1409549 -0.2622201 -0.34298667 -0.075895794
00000000: a96c 69bd c35f e63d f46b 08bd 7b56 10be
00000010: b741 86be f39b afbe 416f 9bbd
