DaniKun/data.pth (torch, 5418 bytes, 6 tensors)

l1.weight f4 [8, 54]
0	0x3d02db9c	0.031947717
1	0x3f151014	0.5822766
2	0x3eece841	0.46270946
3	0x3ef2be51	0.47410825
4	0x3f456158	0.7710166
5	0xbed85550	-0.42252588
6	0x3ee5636c	0.44802415
7	0x3f1352a8	0.57548
8	0x3f078ab4	0.5294602
9	0x3eaadf98	0.33373713
10	0x3f093622	0.53598225
11	0xbec6357f	-0.3871269
12	0x3edc1fac	0.42992914
13	0xbe744ee5	-0.23858221
14	0x3ef18752	0.47173554
15	0xbe6ba78a	-0.2301313
16	0x3f21ef45	0.6325572
17	0xbee8bfd7	-0.45458862
18	0xbed6862c	-0.4189924
19	0x3f634836	0.8878206
20	0xbcfd45d5	-0.030917088
21	0x3f281395	0.6565488
22	0x3f3c9d1f	0.7367725
23	0x3e81d6df	0.25359246
24	0x3ea37130	0.31922293
25	0x3f0254f0	0.50910854
26	0xbefb3ae4	-0.49068367
27	0x3f589378	0.8460002
28	0xbe8cbc13	-0.2748724
29	0x3f1b8429	0.60748535
30	0xbeec0c17	-0.46102974
31	0xbed8d578	-0.42350364
32	0x3e741053	0.23834352
33	0x3f0d4d03	0.55195636
34	0x3f4861bb	0.78274125
35	0xbeb94b41	-0.36190227
36	0xbea502f1	-0.32228807
37	0x3eecfa63	0.4628478
38	0x3ef2b13a	0.47400838
39	0x3edc7cac	0.43063867
40	0xbea00f23	-0.31261548
41	0xbf114fc8	-0.5676236
42	0xbec630ee	-0.38709205
43	0x3f000a87	0.50016063
44	0x3e6a5592	0.22884205
45	0x3f343147	0.7038769
46	0x3e2c303c	0.16815275
47	0x3e6de3e2	0.23231462
48	0x3ee0de3d	0.43919554
49	0xbf1cd851	-0.6126757
50	0xbeac639f	-0.33669755
51	0xbec01f82	-0.3752404
52	0x3ee9fb8e	0.45699733
53	0x3eb1738b	0.34658465
54	0x3eadf859	0.33978537
55	0x3ea5e0ac	0.32397974
56	0xbf06e81a	-0.5269791
57	0xbe8d3e30	-0.27586508
58	0xbe864009	-0.2622073
59	0x3f0956e8	0.53648233
60	0xbddaed82	-0.10689832
61	0xbeea2697	-0.45732567
62	0xbec1a9fe	-0.37825006
63	0xbe9e06cd	-0.30864564
64	0xbe86fb67	-0.2636368
65	0xbe4c7399	-0.19965972
66	0x3e7dd355	0.24787648
67	0x3d1bc550	0.03802997
68	0x3eaba7e7	0.33526537
69	0xbe364e55	-0.17803319
70	0xbe8deda2	-0.27720362
71	0x3ef110b0	0.47083044
72	0x3f2c0388	0.6719289
73	0xbee732d4	-0.45155966
74	0x3ebbc4dd	0.36673632
75	0xbf0a67dd	-0.5406473
76	0xbf08f4fc	-0.53498816
77	0xbf0e63f7	-0.55621284
78	0xbe4c6b42	-0.1996279
79	0xbe8df2f3	-0.27724418
80	0x3f5dd0c4	0.86646676
81	0x3ebcaa6a	0.36848766
82	0x3f441704	0.7659762
83	0x3e660bcb	0.22465436
84	0x3d75abdd	0.059978355
85	0x3de478d6	0.1115586
86	0x3e21efb7	0.158141
87	0xbf29f6b1	-0.66392046
88	0x3f026c48	0.50946474
89	0xbe54cbc8	-0.20780861
90	0x3f16cb70	0.5890417
91	0xbeae523e	-0.3404712
92	0x3cc45edf	0.02397102
93	0xbdaab12e	-0.083345756
94	0x3e5ae59d	0.21376653
95	0x3f3a484b	0.7276656
96	0xbd5bc916	-0.053658567
97	0x3ea1be5b	0.31590542
98	0xbeed02bb	-0.46291146
99	0x3ecb7101	0.39734653
100	0x3f21105d	0.62915593
101	0x3ede1c12	0.4338079
102	0x3e552b99	0.20817412
103	0x3f48b6e1	0.7840405
104	0xbb6811c5	-0.0035410982
105	0x3f16e7e2	0.58947575
106	0xbe34e154	-0.17664081
107	0x3ee170b3	0.44031295
108	0xbdbacd5b	-0.091212
109	0xbe8f8161	-0.28028396
110	0xbe6455ce	-0.22298357
111	0x3eb51c37	0.3537309
112	0x3d5d0ad2	0.053965397
113	0x3f25ca42	0.64761746
114	0xbe9aced3	-0.3023592
115	0xbe85b2b6	-0.26112908
116	0xbec5d943	-0.3864232
117	0xbefcbc7b	-0.4936255
118	0x3e80bfbb	0.2514628
119	0x3f02c99d	0.5108889
120	0xbe562e4b	-0.20916097
121	0x3f113fa0	0.5673771
122	0xbe55d367	-0.20881425
123	0x3ee36d85	0.44419494
124	0x3ee0f0d5	0.4393374
125	0x3f13756c	0.57601047
126	0xbe50119a	-0.20319214
127	0x3ecf5ace	0.40498966
128	0xbe30707c	-0.1723041
129	0x3ea6cc43	0.32577714
130	0x3ea53ac7	0.32271406
131	0x3f1b2a18	0.60611105
132	0x3eaa4215	0.33253542
133	0x3ec2dd53	0.38059482
134	0xbe64f058	-0.22357309
135	0xbdee6e4c	-0.11642131
136	0xbe134037	-0.14379965
137	0xbe20f77a	-0.15719405
138	0x3ef7dcf6	0.48410767
139	0x3f17f612	0.5935985
140	0x3d8d9328	0.069128335
141	0xbea96a1f	-0.33088776
142	0xbe4bd819	-0.19906653
143	0x3f091f65	0.5356353
144	0xbe9f2722	-0.31084543
145	0xbedd2cc3	-0.43198213
146	0xbea45ca2	-0.32101923
147	0xbe96f8b5	-0.29486623
148	0x3edf56d2	0.43620926
149	0xbe8d57fd	-0.27606192
150	0x3eec7963	0.4618636
151	0xbe070ffb	-0.1318969
152	0x3e953bab	0.29147086
153	0xbe86393a	-0.26215535
154	0xbf19f64e	-0.60141456
155	0xbe853612	-0.26017815
156	0x3e4057de	0.18783519
157	0xbe6a9262	-0.22907403
158	0x3eee2eaf	0.46519992
159	0xbd1e10e7	-0.038590338
160	0xbe4eb975	-0.20187934
161	0xbd1d2ecb	-0.038374703
162	0xbdce36a5	-0.10069016
163	0xbe4052fa	-0.18781653
164	0x3f1a6794	0.603143
165	0x3e513e72	0.20433977
166	0x3ee7ffe0	0.45312405
167	0x3e2b57f5	0.16732772
168	0x3e778c0f	0.24174522
169	0x3ef6e46e	0.48221153
170	0x3ecc61dc	0.3991841
171	0x3ee2acfc	0.44272602
172	0x3e82495d	0.25446597
173	0x3ed6e2d2	0.41969925
174	0x3e796e34	0.24358445
175	0x3ed971bc	0.42469585
176	0xbe2c2490	-0.16810822
177	0x3e63e2b4	0.22254449
178	0x3eaaaca6	0.33334845
179	0x3e04fd97	0.12987362
180	0xbdf07d19	-0.117426105
181	0x3f049c30	0.51800823
182	0x3c507dbf	0.012725293
183	0x3ec65ecd	0.38744202
184	0x3f03e3c8	0.5151944
185	0x3ec8a8e4	0.39191353
186	0x3e8cbbda	0.2748707
187	0x3ea6e118	0.32593608
188	0xbe999a72	-0.30000645
189	0xbedf03a3	-0.43557462
190	0xbe66eff4	-0.22552472
191	0xbec1d1a3	-0.37855253
192	0x3e3ba920	0.18326235
193	0x3ec53c26	0.38522452
194	0x3d954340	0.072882175
195	0x3f0c52fa	0.5481411
196	0xbe89dc6e	-0.26925987
197	0x3e4e4c98	0.20146406
198	0xbdc6d8aa	-0.09709294
199	0x3eea1801	0.4572144
200	0x3ecf256c	0.40458238
201	0x3ec84168	0.391124
202	0x3d71ad5b	0.059003215
203	0xbece59ef	-0.4030299
204	0x3e4dc0d3	0.20093088
205	0xbe8144f6	-0.25247926
206	0x3eeb8a18	0.46003795
207	0xbde0e502	-0.1098118
208	0xbeb51aca	-0.35372
209	0xbe5419a2	-0.20712903
210	0x3e093f3b	0.13403027
211	0xbe658ace	-0.22416231
212	0x3e1cbe2e	0.15306923
213	0xbe5da3a4	-0.21644455
214	0x3ec060f0	0.37573957
215	0x3e919f67	0.28441927
216	0xbe9486f1	-0.29009202
217	0xbe181a72	-0.14853838
218	0xbec6e747	-0.38848326
219	0xbe80df3d	-0.25170317
220	0x3c57be1f	0.013167887
221	0x3f4152c2	0.75516903
222	0xbda785c9	-0.08179814
223	0xbe76417a	-0.24048415
224	0xbecc71f9	-0.39930704
225	0xbec46db3	-0.38364944
226	0xbe7a80ab	-0.24463145
227	0x3bda1533	0.006655359
228	0x3e732669	0.23745121
229	0xbd6d2877	-0.05789992
230	0xbe39fd92	-0.18163136
231	0xbdb8bbde	-0.09020208
232	0xbe7d065d	-0.24709459
233	0x3f320e88	0.6955342
234	0x3ef515db	0.47868237
235	0xbed8c5dd	-0.42338458
236	0xbddb2fd2	-0.107024804
237	0xbefbc071	-0.4917026
238	0xbefbbfa4	-0.49169648
239	0x3d73b680	0.059500217
240	0xbdf2eac9	-0.11861188
241	0xbe792faa	-0.24334589
242	0x3f0ae2db	0.54252404
243	0xbe94b9f9	-0.29048136
244	0x3eafdc8a	0.34347945
245	0xbe44d130	-0.19220424
246	0x3ed13a3a	0.40864736
247	0x3d4b9865	0.04970588
248	0x3dbb142a	0.09134705
249	0xbf04dd40	-0.519001
250	0xbe171b18	-0.14756429
251	0x3d8ce581	0.06879712
252	0x3e2b5f7f	0.16735648
253	0xbe915473	-0.28384742
254	0xbdb73b61	-0.089468725
255	0xbbcf03e9	-0.006317605

l1.bias f4 [8]
0	0x3f1116c0	0.5667534
1	0x3f0a661c	0.54062057
2	0x3f4d24a8	0.8013406
3	0x3f4ec741	0.8077279
4	0x3efbbff7	0.49169895
5	0x3f044f5d	0.516836
6	0x3f3f1d18	0.7465377
7	0x3ecd8df3	0.4014736

l2.weight f4 [8, 8]
0	0xbf48590c	-0.78260875
1	0x3f5d39f9	0.86416584
2	0x3f3ab8bc	0.7293813
3	0x3f5baea3	0.8581335
4	0x3f906d09	1.1283275
5	0x3edc6ce7	0.43051836
6	0x3f3c9800	0.73669434
7	0xbf0c94a7	-0.54914325
8	0x3fc66723	1.5500225
9	0xbe1c923d	-0.1529016
10	0xbe4c46f0	-0.19948936
11	0x3edaa36c	0.42702806
12	0xbf7ef904	-0.9959872
13	0xbdc1e406	-0.0946732
14	0x3f92f67d	1.1481472
15	0x3ce41a8c	0.02784469
16	0x3f29c29f	0.66312593
17	0xbefac543	-0.48978624
18	0xbf63c08a	-0.88965666
19	0x3edfdd57	0.43723556
20	0xbf505596	-0.81380594
21	0x3f2f43f3	0.6846306
22	0xbf117a31	-0.56827074
23	0x3f1219d1	0.5707064
24	0x3f229600	0.6351013
25	0xbf21bebb	-0.63181657
26	0x3f92fd04	1.1483464
27	0x3fa3e6eb	1.2804846
28	0xbe556c47	-0.20842086
29	0x3f5e8076	0.86914766
30	0xbe876d0f	-0.26450393
31	0x3f4ac4dc	0.79206634
32	0xbeafa7ba	-0.34307653
33	0x3e543779	0.20724286
34	0xbd205fac	-0.03915374
35	0x3e062cec	0.13103074
36	0xbf4f5948	-0.8099561
37	0x3f95e379	1.1710044
38	0x3e127a03	0.14304356
39	0x3f8aa207	1.0830697
40	0x3ecefc3c	0.40426815
41	0x3f8dd606	1.108094
42	0xbf800cfb	-1.0003961
43	0xbf10d676	-0.5657724
44	0xbe574006	-0.21020517
45	0x3f6f6e85	0.93528014
46	0x3f83ecd6	1.0306652
47	0x3f6a8c29	0.9162012
48	0xbdda9402	-0.106727615
49	0xbf2569f8	-0.6461482
50	0x3e1f15c1	0.15535642
51	0x3f6d810c	0.92775035
52	0xbecd183f	-0.4005756
53	0x3ee65b3f	0.4499149
54	0xbf8804e9	-1.0626498
55	0x3f7f24fb	0.996658
56	0x3e8c6a5a	0.2742489
57	0x3f0dbd83	0.55367297
58	0xbf34112b	-0.70338696
59	0xbef07f7c	-0.46972263
60	0x3f36228f	0.7114648
61	0xbed9918b	-0.42493853
62	0x3f41e3f9	0.75738484
63	0xbf255fbc	-0.64599204

l2.bias f4 [8]
0	0x3ef50e92	0.4786268
1	0x3f119cfb	0.5688016
2	0xbde2fe71	-0.11083687
3	0x3f170b74	0.5900185
4	0xbdaec341	-0.085333355
5	0x3db9c94e	0.09071599
6	0xbe831a0c	-0.2560581
7	0xbe4534c9	-0.19258417

l3.weight f4 [7, 8]
0	0xbf8fa5e5	-1.1222502
1	0xbf6b90a9	-0.9201761
2	0xbf6cbd13	-0.92476004
3	0x3ec7b149	0.39002445
4	0x3f3c4ff2	0.73559487
5	0xbf8fba4e	-1.1228731
6	0x3f04c20c	0.5185859
7	0xbea60fc8	-0.32433915
8	0xbf6f05b2	-0.93368065
9	0x3f4597fa	0.7718502
10	0xbfa7077c	-1.3049159
11	0xbf9dc686	-1.232621
12	0xbf74bfc7	-0.9560513
13	0x3ee92ff5	0.455444
14	0xbec7e544	-0.39042103
15	0x3eee299e	0.46516126
16	0x3f1a257b	0.6021344
17	0xbfa66fc1	-1.3002855
18	0xbecd13b0	-0.40054083
19	0x3e01fcb9	0.12694062
20	0xbf61550c	-0.88020396
21	0xbf9b6cb2	-1.2142546
22	0xbf6c0ea0	-0.92209816
23	0xbf9e4bf6	-1.2366931
24	0xbf67826d	-0.9043339
25	0x3f85991a	1.0437348
26	0xbfb0d07b	-1.3813623
27	0x3f16e329	0.5894037
28	0xbf6aef7a	-0.9177166
29	0xbf8a00bc	-1.0781474
30	0xbf1c42d7	-0.6103949
31	0xbfa49bc1	-1.2860032
32	0x3dac1bad	0.08403716
33	0xbf049471	-0.51789004
34	0xbf893486	-1.0719154
35	0xbfab3856	-1.3376567
36	0xbf3dba59	-0.7411247
37	0x3eed6ba7	0.46371195
38	0xbe869643	-0.26286516
39	0x3eebd879	0.46063593
40	0xbfbd7474	-1.4801164
41	0x3d2e8d1b	0.042615037
42	0x3f5b3033	0.8562042
43	0x3c64e542	0.013970675
44	0x3d141814	0.036155775
45	0xbefd7b10	-0.49507952
46	0x3e7f732c	0.24946278
47	0xbe9cc6c5	-0.306204
48	0xbf80990e	-1.0046709
49	0x3da590eb	0.080842815
50	0xbead8f31	-0.3389831
51	0xbebcffb9	-0.3691385
52	0x3f78b2e1	0.9714795
53	0x3f06abc2	0.5260583
54	0xbfa32471	-1.2745496
55	0xbf95f60d	-1.1715714

l3.bias f4 [7]
0	0xbec19133	-0.3780609
1	0xbe8f749d	-0.28018656
2	0x3f103524	0.56331086
3	0x3de018b5	0.109422125
4	0xbc81d57f	-0.015848873
5	0xbe6f1c11	-0.2335055
6	0xbec75225	-0.3892986
